…
0, cutmix=0.0, copy_paste=0.0, copy_paste_mode=flip, auto_augment=randaugment, erasing=0.4, cfg=None, tracker=botsort.yaml, save_dir=runs/classify/train2
train: /home/silvan/Coding/mlmc-project-2025/src/datasets/cifar100/train... found 50000 images in 100 classes âœ… 
val: None...
test: /home/silvan/Coding/mlmc-project-2025/src/datasets/cifar100/test... found 10000 images in 100 classes âœ… 
Overriding model.yaml nc=80 with nc=100

                   from  n    params  module                                       arguments                     
  0                  -1  1       464  ultralytics.nn.modules.conv.Conv             [3, 16, 3, 2]                 
  1                  -1  1      4672  ultralytics.nn.modules.conv.Conv             [16, 32, 3, 2]                
  2                  -1  1      6640  ultralytics.nn.modules.block.C3k2            [32, 64, 1, False, 0.25]      
  3                  -1  1     36992  ultralytics.nn.modules.conv.Conv             [64, 64, 3, 2]                
  4                  -1  1     26080  ultralytics.nn.modules.block.C3k2            [64, 128, 1, False, 0.25]     
  5                  -1  1    147712  ultralytics.nn.modules.conv.Conv             [128, 128, 3, 2]              
  6                  -1  1     87040  ultralytics.nn.modules.block.C3k2            [128, 128, 1, True]           
  7                  -1  1    295424  ultralytics.nn.modules.conv.Conv             [128, 256, 3, 2]              
  8                  -1  1    346112  ultralytics.nn.modules.block.C3k2            [256, 256, 1, True]           
  9                  -1  1    249728  ultralytics.nn.modules.block.C2PSA           [256, 256, 1]                 
 10                  -1  1    458340  ultralytics.nn.modules.head.Classify         [256, 100]                    
YOLO11n-cls summary: 86 layers, 1,659,204 parameters, 1,659,204 gradients, 3.4 GFLOPs
Transferred 234/236 items from pretrained weights
AMP: running Automatic Mixed Precision (AMP) checks...
AMP: checks passed âœ…
train: Fast image access âœ… (ping: 0.0Â±0.0 ms, read: 429.0Â±178.7 MB/s, size: 2.7 KB)
train: Scanning /home/silvan/Coding/mlmc-project-2025/src/datasets/cifar100/train... 50000 images, 0 corrupt: 100%|â–ˆâ–ˆâ–ˆâ–ˆâ–ˆâ–ˆâ–ˆâ–ˆâ–ˆâ–ˆ| 50000/50000
…
